ModuleList(
  (0): BertLayer(
    (attention): BertAttention(
      (self): BertSelfAttention(
        (query): Linear(in_features=768, out_features=768, bias=True)
        (key): Linear(in_features=768, out_features=768, bias=True)
        (value): Linear(in_features=768, out_features=768, bias=True)
        (dropout): Dropout(p=0.1)
      )
      (output): BertSelfOutput(
        (dense): Linear(in_features=768, out_features=768, bias=True)
        (LayerNorm): LayerNorm(torch.Size([768]), eps=1e-12, elementwise_affine=True)
        (dropout): Dropout(p=0.1)
      )
    )
    (intermediate): BertIntermediate(
      (dense): Linear(in_features=768, out_features=3072, bias=True)
    )
    (output): BertOutput(
      (dense): Linear(in_features=3072, out_features=768, bias=True)
      (LayerNorm): LayerNorm(torch.Size([768]), eps=1e-12, elementwise_affine=True)
      (dropout): Dropout(p=0.1)
    )
  )
  (1): BertLayer(
    (attention): BertAttention(
      (self): BertSelfAttention(
        (query): Linear(in_features=768, out_features=768, bias=True)
        (key): Linear(in_features=768, out_features=768, bias=True)
        (value): Linear(in_features=768, out_features=768, bias=True)
        (dropout): Dropout(p=0.1)
      )
      (output): BertSelfOutput(
        (dense): Linear(in_features=768, out_features=768, bias=True)
        (LayerNorm): LayerNorm(torch.Size([768]), eps=1e-12, elementwise_affine=True)
        (dropout): Dropout(p=0.1)
      )
    )
    (intermediate): BertIntermediate(
      (dense): Linear(in_features=768, out_features=3072, bias=True)
    )
    (output): BertOutput(
      (dense): Linear(in_features=3072, out_features=768, bias=True)
      (LayerNorm): LayerNorm(torch.Size([768]), eps=1e-12, elementwise_affine=True)
      (dropout): Dropout(p=0.1)
    )
  )
  (2): BertLayer(
    (attention): BertAttention(
      (self): BertSelfAttention(
        (query): Linear(in_features=768, out_features=768, bias=True)
        (key): Linear(in_features=768, out_features=768, bias=True)
        (value): Linear(in_features=768, out_features=768, bias=True)
        (dropout): Dropout(p=0.1)
      )
      (output): BertSelfOutput(
        (dense): Linear(in_features=768, out_features=768, bias=True)
        (LayerNorm): LayerNorm(torch.Size([768]), eps=1e-12, elementwise_affine=True)
        (dropout): Dropout(p=0.1)
      )
    )
    (intermediate): BertIntermediate(
      (dense): Linear(in_features=768, out_features=3072, bias=True)
    )
    (output): BertOutput(
      (dense): Linear(in_features=3072, out_features=768, bias=True)
      (LayerNorm): LayerNorm(torch.Size([768]), eps=1e-12, elementwise_affine=True)
      (dropout): Dropout(p=0.1)
    )
  )
  (3): BertLayer(
    (attention): BertAttention(
      (self): BertSelfAttention(
        (query): Linear(in_features=768, out_features=768, bias=True)
        (key): Linear(in_features=768, out_features=768, bias=True)
        (value): Linear(in_features=768, out_features=768, bias=True)
        (dropout): Dropout(p=0.1)
      )
      (output): BertSelfOutput(
        (dense): Linear(in_features=768, out_features=768, bias=True)
        (LayerNorm): LayerNorm(torch.Size([768]), eps=1e-12, elementwise_affine=True)
        (dropout): Dropout(p=0.1)
      )
    )
    (intermediate): BertIntermediate(
      (dense): Linear(in_features=768, out_features=3072, bias=True)
    )
    (output): BertOutput(
      (dense): Linear(in_features=3072, out_features=768, bias=True)
      (LayerNorm): LayerNorm(torch.Size([768]), eps=1e-12, elementwise_affine=True)
      (dropout): Dropout(p=0.1)
    )
  )
  (4): BertLayer(
    (attention): BertAttention(
      (self): BertSelfAttention(
        (query): Linear(in_features=768, out_features=768, bias=True)
        (key): Linear(in_features=768, out_features=768, bias=True)
        (value): Linear(in_features=768, out_features=768, bias=True)
        (dropout): Dropout(p=0.1)
      )
      (output): BertSelfOutput(
        (dense): Linear(in_features=768, out_features=768, bias=True)
        (LayerNorm): LayerNorm(torch.Size([768]), eps=1e-12, elementwise_affine=True)
        (dropout): Dropout(p=0.1)
      )
    )
    (intermediate): BertIntermediate(
      (dense): Linear(in_features=768, out_features=3072, bias=True)
    )
    (output): BertOutput(
      (dense): Linear(in_features=3072, out_features=768, bias=True)
      (LayerNorm): LayerNorm(torch.Size([768]), eps=1e-12, elementwise_affine=True)
      (dropout): Dropout(p=0.1)
    )
  )
  (5): BertLayer(
    (attention): BertAttention(
      (self): BertSelfAttention(
        (query): Linear(in_features=768, out_features=768, bias=True)
        (key): Linear(in_features=768, out_features=768, bias=True)
        (value): Linear(in_features=768, out_features=768, bias=True)
        (dropout): Dropout(p=0.1)
      )
      (output): BertSelfOutput(
        (dense): Linear(in_features=768, out_features=768, bias=True)
        (LayerNorm): LayerNorm(torch.Size([768]), eps=1e-12, elementwise_affine=True)
        (dropout): Dropout(p=0.1)
      )
    )
    (intermediate): BertIntermediate(
      (dense): Linear(in_features=768, out_features=3072, bias=True)
    )
    (output): BertOutput(
      (dense): Linear(in_features=3072, out_features=768, bias=True)
      (LayerNorm): LayerNorm(torch.Size([768]), eps=1e-12, elementwise_affine=True)
      (dropout): Dropout(p=0.1)
    )
  )
  (6): BertLayer(
    (attention): BertAttention(
      (self): BertSelfAttention(
        (query): Linear(in_features=768, out_features=768, bias=True)
        (key): Linear(in_features=768, out_features=768, bias=True)
        (value): Linear(in_features=768, out_features=768, bias=True)
        (dropout): Dropout(p=0.1)
      )
      (output): BertSelfOutput(
        (dense): Linear(in_features=768, out_features=768, bias=True)
        (LayerNorm): LayerNorm(torch.Size([768]), eps=1e-12, elementwise_affine=True)
        (dropout): Dropout(p=0.1)
      )
    )
    (intermediate): BertIntermediate(
      (dense): Linear(in_features=768, out_features=3072, bias=True)
    )
    (output): BertOutput(
      (dense): Linear(in_features=3072, out_features=768, bias=True)
      (LayerNorm): LayerNorm(torch.Size([768]), eps=1e-12, elementwise_affine=True)
      (dropout): Dropout(p=0.1)
    )
  )
  (7): BertLayer(
    (attention): BertAttention(
      (self): BertSelfAttention(
        (query): Linear(in_features=768, out_features=768, bias=True)
        (key): Linear(in_features=768, out_features=768, bias=True)
        (value): Linear(in_features=768, out_features=768, bias=True)
        (dropout): Dropout(p=0.1)
      )
      (output): BertSelfOutput(
        (dense): Linear(in_features=768, out_features=768, bias=True)
        (LayerNorm): LayerNorm(torch.Size([768]), eps=1e-12, elementwise_affine=True)
        (dropout): Dropout(p=0.1)
      )
    )
    (intermediate): BertIntermediate(
      (dense): Linear(in_features=768, out_features=3072, bias=True)
    )
    (output): BertOutput(
      (dense): Linear(in_features=3072, out_features=768, bias=True)
      (LayerNorm): LayerNorm(torch.Size([768]), eps=1e-12, elementwise_affine=True)
      (dropout): Dropout(p=0.1)
    )
  )
  (8): BertLayer(
    (attention): BertAttention(
      (self): BertSelfAttention(
        (query): Linear(in_features=768, out_features=768, bias=True)
        (key): Linear(in_features=768, out_features=768, bias=True)
        (value): Linear(in_features=768, out_features=768, bias=True)
        (dropout): Dropout(p=0.1)
      )
      (output): BertSelfOutput(
        (dense): Linear(in_features=768, out_features=768, bias=True)
        (LayerNorm): LayerNorm(torch.Size([768]), eps=1e-12, elementwise_affine=True)
        (dropout): Dropout(p=0.1)
      )
    )
    (intermediate): BertIntermediate(
      (dense): Linear(in_features=768, out_features=3072, bias=True)
    )
    (output): BertOutput(
      (dense): Linear(in_features=3072, out_features=768, bias=True)
      (LayerNorm): LayerNorm(torch.Size([768]), eps=1e-12, elementwise_affine=True)
      (dropout): Dropout(p=0.1)
    )
  )
  (9): BertLayer(
    (attention): BertAttention(
      (self): BertSelfAttention(
        (query): Linear(in_features=768, out_features=768, bias=True)
        (key): Linear(in_features=768, out_features=768, bias=True)
        (value): Linear(in_features=768, out_features=768, bias=True)
        (dropout): Dropout(p=0.1)
      )
      (output): BertSelfOutput(
        (dense): Linear(in_features=768, out_features=768, bias=True)
        (LayerNorm): LayerNorm(torch.Size([768]), eps=1e-12, elementwise_affine=True)
        (dropout): Dropout(p=0.1)
      )
    )
    (intermediate): BertIntermediate(
      (dense): Linear(in_features=768, out_features=3072, bias=True)
    )
    (output): BertOutput(
      (dense): Linear(in_features=3072, out_features=768, bias=True)
      (LayerNorm): LayerNorm(torch.Size([768]), eps=1e-12, elementwise_affine=True)
      (dropout): Dropout(p=0.1)
    )
  )
  (10): BertLayer(
    (attention): BertAttention(
      (self): BertSelfAttention(
        (query): Linear(in_features=768, out_features=768, bias=True)
        (key): Linear(in_features=768, out_features=768, bias=True)
        (value): Linear(in_features=768, out_features=768, bias=True)
        (dropout): Dropout(p=0.1)
      )
      (output): BertSelfOutput(
        (dense): Linear(in_features=768, out_features=768, bias=True)
        (LayerNorm): LayerNorm(torch.Size([768]), eps=1e-12, elementwise_affine=True)
        (dropout): Dropout(p=0.1)
      )
    )
    (intermediate): BertIntermediate(
      (dense): Linear(in_features=768, out_features=3072, bias=True)
    )
    (output): BertOutput(
      (dense): Linear(in_features=3072, out_features=768, bias=True)
      (LayerNorm): LayerNorm(torch.Size([768]), eps=1e-12, elementwise_affine=True)
      (dropout): Dropout(p=0.1)
    )
  )
  (11): BertLayer(
    (attention): BertAttention(
      (self): BertSelfAttention(
        (query): Linear(in_features=768, out_features=768, bias=True)
        (key): Linear(in_features=768, out_features=768, bias=True)
        (value): Linear(in_features=768, out_features=768, bias=True)
        (dropout): Dropout(p=0.1)
      )
      (output): BertSelfOutput(
        (dense): Linear(in_features=768, out_features=768, bias=True)
        (LayerNorm): LayerNorm(torch.Size([768]), eps=1e-12, elementwise_affine=True)
        (dropout): Dropout(p=0.1)
      )
    )
    (intermediate): BertIntermediate(
      (dense): Linear(in_features=768, out_features=3072, bias=True)
    )
    (output): BertOutput(
      (dense): Linear(in_features=3072, out_features=768, bias=True)
      (LayerNorm): LayerNorm(torch.Size([768]), eps=1e-12, elementwise_affine=True)
      (dropout): Dropout(p=0.1)
    )
  )
)